…
Python 3.7.2 (tags/v3.7.2:9a3ffc0492, Dec 23 2018, 23:09:28) [MSC v.1916 64 bit (AMD64)] on win32
runfile('D:/python/ml/lab5/__init__.py', wdir='D:/python/ml/lab5')
Using TensorFlow backend.
Read MNIST Dataset
Read CIFAR-10 Dataset
MNIST CNN
2019-11-06 22:07:03.875618: I tensorflow/core/platform/cpu_feature_guard.cc:142] Your CPU supports instructions that this TensorFlow binary was not compiled to use: AVX2
Model: "sequential_1"
_________________________________________________________________
Layer (type)                 Output Shape              Param #   
=================================================================
conv2d_1 (Conv2D)            (None, 26, 26, 32)        320       
_________________________________________________________________
conv2d_2 (Conv2D)            (None, 24, 24, 64)        18496     
_________________________________________________________________
max_pooling2d_1 (MaxPooling2 (None, 12, 12, 64)        0         
_________________________________________________________________
dropout_1 (Dropout)          (None, 12, 12, 64)        0         
_________________________________________________________________
flatten_1 (Flatten)          (None, 9216)              0         
_________________________________________________________________
dense_1 (Dense)              (None, 128)               1179776   
_________________________________________________________________
dropout_2 (Dropout)          (None, 128)               0         
_________________________________________________________________
dense_2 (Dense)              (None, 10)                1290      
=================================================================
Total params: 1,199,882
Trainable params: 1,199,882
Non-trainable params: 0
_________________________________________________________________
Train on 2000 samples, validate on 1000 samples
Epoch 1/20
 - 5s - loss: 4.3426 - accuracy: 0.5945 - val_loss: 2.3248 - val_accuracy: 0.7800
Epoch 2/20
 - 4s - loss: 2.1334 - accuracy: 0.7860 - val_loss: 2.1883 - val_accuracy: 0.7200
…
 - 4s - loss: 1.1280 - accuracy: 0.9250 - val_loss: 1.1222 - val_accuracy: 0.9190
Epoch 18/20
 - 4s - loss: 1.0989 - accuracy: 0.9305 - val_loss: 1.1055 - val_accuracy: 0.9260
Epoch 19/20
 - 4s - loss: 1.1061 - accuracy: 0.9355 - val_loss: 1.0898 - val_accuracy: 0.9330
Epoch 20/20
 - 4s - loss: 1.1113 - accuracy: 0.9270 - val_loss: 1.1025 - val_accuracy: 0.9270
CIFAR-10 CNN
Model: "sequential_2"
_________________________________________________________________
Layer (type)                 Output Shape              Param #   
=================================================================
conv2d_3 (Conv2D)            (None, 30, 30, 32)        896       
_________________________________________________________________
conv2d_4 (Conv2D)            (None, 28, 28, 64)        18496     
_________________________________________________________________
max_pooling2d_2 (MaxPooling2 (None, 14, 14, 64)        0         
_________________________________________________________________
dropout_3 (Dropout)          (None, 14, 14, 64)        0         
_________________________________________________________________
flatten_2 (Flatten)          (None, 12544)             0         
_________________________________________________________________
dense_3 (Dense)              (None, 128)               1605760   
_________________________________________________________________
dropout_4 (Dropout)          (None, 128)               0         
_________________________________________________________________
dense_4 (Dense)              (None, 10)                1290      
=================================================================
Total params: 1,626,442
Trainable params: 1,626,442
Non-trainable params: 0
_________________________________________________________________
Train on 2000 samples, validate on 1000 samples
Epoch 1/20
 - 6s - loss: 4.9290 - accuracy: 0.1415 - val_loss: 3.2437 - val_accuracy: 0.1430
Epoch 2/20
 - 6s - loss: 3.0897 - accuracy: 0.1915 - val_loss: 3.0727 - val_accuracy: 0.1930
…
