…
Python 3.7.2 (tags/v3.7.2:9a3ffc0492, Dec 23 2018, 23:09:28) [MSC v.1916 64 bit (AMD64)] on win32
runfile('D:/python/ml/lab5/__init__.py', wdir='D:/python/ml/lab5')
Using TensorFlow backend.
Read MNIST Dataset
Read CIFAR-10 Dataset
MNIST CNN
2019-11-05 22:09:48.071878: I tensorflow/core/platform/cpu_feature_guard.cc:142] Your CPU supports instructions that this TensorFlow binary was not compiled to use: AVX2
Model: "sequential_1"
_________________________________________________________________
Layer (type)                 Output Shape              Param #   
=================================================================
conv2d_1 (Conv2D)            (None, 26, 26, 32)        320       
_________________________________________________________________
max_pooling2d_1 (MaxPooling2 (None, 13, 13, 32)        0         
_________________________________________________________________
conv2d_2 (Conv2D)            (None, 11, 11, 64)        18496     
_________________________________________________________________
max_pooling2d_2 (MaxPooling2 (None, 5, 5, 64)          0         
_________________________________________________________________
flatten_1 (Flatten)          (None, 1600)              0         
_________________________________________________________________
dense_1 (Dense)              (None, 128)               204928    
_________________________________________________________________
dense_2 (Dense)              (None, 10)                1290      
=================================================================
Total params: 225,034
Trainable params: 225,034
Non-trainable params: 0
_________________________________________________________________
Train on 2000 samples, validate on 1000 samples
Epoch 1/20
 - 1s - loss: 1.1285 - accuracy: 0.6440 - val_loss: 0.5729 - val_accuracy: 0.8120
Epoch 2/20
 - 1s - loss: 0.3668 - accuracy: 0.8980 - val_loss: 0.4322 - val_accuracy: 0.8640
…
