…
Python 3.7.2 (tags/v3.7.2:9a3ffc0492, Dec 23 2018, 23:09:28) [MSC v.1916 64 bit (AMD64)] on win32
runfile('D:/python/ml/lab5/__init__.py', wdir='D:/python/ml/lab5')
Using TensorFlow backend.
Read MNIST Dataset
Read CIFAR-10 Dataset
MNIST CNN
2019-11-06 08:17:16.523132: I tensorflow/core/platform/cpu_feature_guard.cc:142] Your CPU supports instructions that this TensorFlow binary was not compiled to use: AVX2
Model: "sequential_1"
_________________________________________________________________
Layer (type)                 Output Shape              Param #   
=================================================================
conv2d_1 (Conv2D)            (None, 26, 26, 32)        320       
_________________________________________________________________
conv2d_2 (Conv2D)            (None, 24, 24, 64)        18496     
_________________________________________________________________
max_pooling2d_1 (MaxPooling2 (None, 12, 12, 64)        0         
_________________________________________________________________
dropout_1 (Dropout)          (None, 12, 12, 64)        0         
_________________________________________________________________
flatten_1 (Flatten)          (None, 9216)              0         
_________________________________________________________________
dense_1 (Dense)              (None, 128)               1179776   
_________________________________________________________________
dropout_2 (Dropout)          (None, 128)               0         
_________________________________________________________________
dense_2 (Dense)              (None, 10)                1290      
=================================================================
Total params: 1,199,882
Trainable params: 1,199,882
Non-trainable params: 0
_________________________________________________________________
Train on 2000 samples, validate on 1000 samples
Epoch 1/20
 - 4s - loss: 2.3066 - accuracy: 0.1000 - val_loss: 2.3054 - val_accuracy: 0.0460
Epoch 2/20
 - 3s - loss: 2.3068 - accuracy: 0.0820 - val_loss: 2.3054 - val_accuracy: 0.0460
…
