…
Python 3.7.4 (tags/v3.7.4:e09359112e, Jul  8 2019, 20:34:20) [MSC v.1916 64 bit (AMD64)] on win32
runfile('D:/Projects/cs5361-labs/lab5/__init__.py', wdir='D:/Projects/cs5361-labs/lab5')
Using TensorFlow backend.
Read MNIST Dataset
Read CIFAR-10 Dataset
MNIST CNN
2019-11-07 16:05:04.445053: I tensorflow/core/platform/cpu_feature_guard.cc:142] Your CPU supports instructions that this TensorFlow binary was not compiled to use: AVX2
Model: "sequential_1"
_________________________________________________________________
Layer (type)                 Output Shape              Param #   
=================================================================
conv2d_1 (Conv2D)            (None, 26, 26, 32)        320       
_________________________________________________________________
conv2d_2 (Conv2D)            (None, 24, 24, 64)        18496     
_________________________________________________________________
max_pooling2d_1 (MaxPooling2 (None, 12, 12, 64)        0         
_________________________________________________________________
dropout_1 (Dropout)          (None, 12, 12, 64)        0         
_________________________________________________________________
flatten_1 (Flatten)          (None, 9216)              0         
_________________________________________________________________
dense_1 (Dense)              (None, 128)               1179776   
_________________________________________________________________
dropout_2 (Dropout)          (None, 128)               0         
_________________________________________________________________
dense_2 (Dense)              (None, 10)                1290      
=================================================================
Total params: 1,199,882
Trainable params: 1,199,882
Non-trainable params: 0
_________________________________________________________________
Train on 2000 samples, validate on 1000 samples
Epoch 1/20
 - 6s - loss: 4.2109 - accuracy: 0.6000 - val_loss: 2.2507 - val_accuracy: 0.6950
Epoch 2/20
 - 5s - loss: 2.0085 - accuracy: 0.7800 - val_loss: 1.8332 - val_accuracy: 0.8330
…
 - 5s - loss: 1.2415 - accuracy: 0.9210 - val_loss: 1.2336 - val_accuracy: 0.9180
Epoch 18/20
 - 5s - loss: 1.2016 - accuracy: 0.9180 - val_loss: 1.1852 - val_accuracy: 0.9210
Epoch 19/20
 - 5s - loss: 1.2022 - accuracy: 0.9190 - val_loss: 1.1824 - val_accuracy: 0.9240
Epoch 20/20
 - 5s - loss: 1.1956 - accuracy: 0.9140 - val_loss: 1.1716 - val_accuracy: 0.9290
CIFAR-10 CNN
Model: "sequential_2"
_________________________________________________________________
Layer (type)                 Output Shape              Param #   
=================================================================
conv2d_3 (Conv2D)            (None, 30, 30, 32)        896       
_________________________________________________________________
conv2d_4 (Conv2D)            (None, 28, 28, 64)        18496     
_________________________________________________________________
max_pooling2d_2 (MaxPooling2 (None, 14, 14, 64)        0         
_________________________________________________________________
dropout_3 (Dropout)          (None, 14, 14, 64)        0         
_________________________________________________________________
flatten_2 (Flatten)          (None, 12544)             0         
_________________________________________________________________
dense_3 (Dense)              (None, 128)               1605760   
_________________________________________________________________
dropout_4 (Dropout)          (None, 128)               0         
_________________________________________________________________
dense_4 (Dense)              (None, 10)                1290      
=================================================================
Total params: 1,626,442
Trainable params: 1,626,442
Non-trainable params: 0
_________________________________________________________________
Train on 2000 samples, validate on 1000 samples
Epoch 1/20
 - 9s - loss: 5.0043 - accuracy: 0.1420 - val_loss: 3.1710 - val_accuracy: 0.1630
Epoch 2/20
 - 7s - loss: 3.0979 - accuracy: 0.1925 - val_loss: 3.1316 - val_accuracy: 0.1980
…
