…
runfile('D:/python/ml/lab5/__init__.py', wdir='D:/python/ml/lab5')
Using TensorFlow backend.
Read MNIST Dataset
Read CIFAR-10 Dataset
MNIST= (2000, 28, 28, 1) (1000, 28, 28, 1)
CIFAR10= (2000, 32, 32, 3) (1000, 32, 32, 3)
MNIST CNN
2019-11-06 10:50:13.026321: I tensorflow/core/platform/cpu_feature_guard.cc:142] Your CPU supports instructions that this TensorFlow binary was not compiled to use: AVX2
Model: "sequential_1"
_________________________________________________________________
Layer (type)                 Output Shape              Param #   
=================================================================
conv2d_1 (Conv2D)            (None, 26, 26, 32)        320       
_________________________________________________________________
conv2d_2 (Conv2D)            (None, 24, 24, 64)        18496     
_________________________________________________________________
average_pooling2d_1 (Average (None, 12, 12, 64)        0         
_________________________________________________________________
dropout_1 (Dropout)          (None, 12, 12, 64)        0         
_________________________________________________________________
flatten_1 (Flatten)          (None, 9216)              0         
_________________________________________________________________
dense_1 (Dense)              (None, 128)               1179776   
_________________________________________________________________
dropout_2 (Dropout)          (None, 128)               0         
_________________________________________________________________
dense_2 (Dense)              (None, 10)                1290      
=================================================================
Total params: 1,199,882
Trainable params: 1,199,882
Non-trainable params: 0
_________________________________________________________________
Train on 2000 samples, validate on 1000 samples
Epoch 1/20
 - 3s - loss: 0.9764 - accuracy: 0.6810 - val_loss: 0.4738 - val_accuracy: 0.8510
Epoch 2/20
 - 3s - loss: 0.3799 - accuracy: 0.8875 - val_loss: 0.2682 - val_accuracy: 0.9120
…
 - 5s - loss: 1.6003 - accuracy: 0.4145 - val_loss: 1.6755 - val_accuracy: 0.4200
Epoch 19/20
 - 5s - loss: 1.5770 - accuracy: 0.4260 - val_loss: 1.6955 - val_accuracy: 0.3990
Epoch 20/20
 - 5s - loss: 1.5602 - accuracy: 0.4305 - val_loss: 1.6874 - val_accuracy: 0.4080
Read Gamma Ray Dataset
Read Solar Particle Dataset
Gamma= (7608, 10) (3804, 10)
Solar= (29573, 50) (10786, 50)
Gamma Ray DNN
Model: "sequential_3"
_________________________________________________________________
Layer (type)                 Output Shape              Param #   
=================================================================
dense_5 (Dense)              (None, 10)                110       
_________________________________________________________________
dropout_6 (Dropout)          (None, 10)                0         
_________________________________________________________________
dense_6 (Dense)              (None, 10)                110       
_________________________________________________________________
dropout_7 (Dropout)          (None, 10)                0         
_________________________________________________________________
dense_7 (Dense)              (None, 1)                 11        
=================================================================
Total params: 231
Trainable params: 231
Non-trainable params: 0
_________________________________________________________________
Train on 7608 samples, validate on 3804 samples
Epoch 1/20
 - 1s - loss: 0.6226 - accuracy: 0.6601 - val_loss: 0.5150 - val_accuracy: 0.7250
Epoch 2/20
 - 0s - loss: 0.5239 - accuracy: 0.7350 - val_loss: 0.4543 - val_accuracy: 0.7834
…
