…
Python 3.7.2 (tags/v3.7.2:9a3ffc0492, Dec 23 2018, 23:09:28) [MSC v.1916 64 bit (AMD64)] on win32
runfile('D:/python/ml/lab5/__init__.py', wdir='D:/python/ml/lab5')
Using TensorFlow backend.
Read MNIST Dataset
Read CIFAR-10 Dataset
MNIST CNN
2019-11-06 22:12:43.821644: I tensorflow/core/platform/cpu_feature_guard.cc:142] Your CPU supports instructions that this TensorFlow binary was not compiled to use: AVX2
Model: "sequential_1"
_________________________________________________________________
Layer (type)                 Output Shape              Param #   
=================================================================
conv2d_1 (Conv2D)            (None, 26, 26, 32)        320       
_________________________________________________________________
conv2d_2 (Conv2D)            (None, 24, 24, 64)        18496     
_________________________________________________________________
max_pooling2d_1 (MaxPooling2 (None, 12, 12, 64)        0         
_________________________________________________________________
dropout_1 (Dropout)          (None, 12, 12, 64)        0         
_________________________________________________________________
flatten_1 (Flatten)          (None, 9216)              0         
_________________________________________________________________
dense_1 (Dense)              (None, 128)               1179776   
_________________________________________________________________
dropout_2 (Dropout)          (None, 128)               0         
_________________________________________________________________
dense_2 (Dense)              (None, 10)                1290      
=================================================================
Total params: 1,199,882
Trainable params: 1,199,882
Non-trainable params: 0
_________________________________________________________________
Train on 2000 samples, validate on 1000 samples
Epoch 1/20
 - 5s - loss: 4.0274 - accuracy: 0.6045 - val_loss: 2.0596 - val_accuracy: 0.8190
Epoch 2/20
 - 5s - loss: 2.0139 - accuracy: 0.7890 - val_loss: 1.7265 - val_accuracy: 0.8600
…
 - 5s - loss: 1.1522 - accuracy: 0.9315 - val_loss: 1.1961 - val_accuracy: 0.9150
Epoch 18/20
 - 6s - loss: 1.1694 - accuracy: 0.9220 - val_loss: 1.1535 - val_accuracy: 0.9320
Epoch 19/20
 - 6s - loss: 1.1613 - accuracy: 0.9280 - val_loss: 1.1477 - val_accuracy: 0.9300
Epoch 20/20
 - 6s - loss: 1.1470 - accuracy: 0.9315 - val_loss: 1.1788 - val_accuracy: 0.9220
CIFAR-10 CNN
Model: "sequential_2"
_________________________________________________________________
Layer (type)                 Output Shape              Param #   
=================================================================
conv2d_3 (Conv2D)            (None, 30, 30, 32)        896       
_________________________________________________________________
conv2d_4 (Conv2D)            (None, 28, 28, 64)        18496     
_________________________________________________________________
max_pooling2d_2 (MaxPooling2 (None, 14, 14, 64)        0         
_________________________________________________________________
dropout_3 (Dropout)          (None, 14, 14, 64)        0         
_________________________________________________________________
flatten_2 (Flatten)          (None, 12544)             0         
_________________________________________________________________
dense_3 (Dense)              (None, 128)               1605760   
_________________________________________________________________
dropout_4 (Dropout)          (None, 128)               0         
_________________________________________________________________
dense_4 (Dense)              (None, 10)                1290      
=================================================================
Total params: 1,626,442
Trainable params: 1,626,442
Non-trainable params: 0
_________________________________________________________________
Train on 2000 samples, validate on 1000 samples
Epoch 1/20
 - 8s - loss: 5.2187 - accuracy: 0.1445 - val_loss: 3.1661 - val_accuracy: 0.2310
Epoch 2/20
 - 8s - loss: 3.0742 - accuracy: 0.2030 - val_loss: 3.1695 - val_accuracy: 0.1810
…
